人工智能 饶洋辉/人工智能实验/期末project/DQN_othello/model_offensive.pth (torch_old, 301732 bytes, 8 tensors)

linear1.0.weight f4 [128, 64]
0.023732059 0.106606685 -0.03271275 0.05576134 0.053734206 0.004968737 0.018268298 -0.030091861
-0.10889613 0.1388237 -0.074124314 0.03364448 -0.026804378 -0.34984717 0.074354924 -0.056856398
-0.17297137 0.28741485 0.20594355 -0.19244108 0.018577911 0.16759954 -0.11859395 -0.039917756
-0.18040183 0.01565954 0.09459517 -0.32631373 0.06900182 0.0050476184 -0.05339967 -0.15903005
-0.109663785 0.11393524 -0.10315237 -0.003422403 -0.06744985 0.16127883 -0.2224974 -0.03708614
-0.34700143 -0.20117797 -0.17235476 -0.21011701 0.11731889 0.07029399 -0.2664626 -0.20554253
-0.052388128 -0.004761438 0.0691522 -0.100130245 -0.07291649 -0.09421575 -0.060066067 -0.13443914
-0.27101794 -0.16393934 -0.071716145 0.13534632 0.09896754 0.005662005 -0.030850546 -0.11558598
-0.02403119 -0.122398056 -0.08213044 -0.050863236 0.059105914 0.029312624 -0.03351632 0.15178707
-0.09247142 0.16603997 0.07314233 0.0692413 -0.09279008 -0.09726434 -0.06383634 0.039693758
0.029215485 0.3061315 0.023716582 -0.13492382 -0.026191264 0.14211091 0.023535779 0.061830107
-0.18403494 0.054112777 -0.13468789 -0.13354856 -0.14252111 -0.045827348 -0.07197101 -0.011748227
0.01591109 0.02012795 -0.01637243 0.094159484 -0.23803684 0.05360359 0.02615717 -0.04968195
-0.36881253 -0.28088698 -0.0129371295 -0.010115211 0.040154792 0.061166342 -0.08319832 0.074522525
-0.17021057 0.026476076 -0.1242799 -0.050845046 0.06899508 -0.10821308 -0.0045238542 0.015722165
-0.096132524 -0.09038497 -0.15421592 0.008623487 0.13435444 -0.038543828 0.08152203 0.06472988
-0.2684209 0.09385512 0.027340923 0.020434633 0.055496052 -0.05865222 0.05604772 0.09823981
-0.23941469 0.037830163 -0.06758553 0.08124818 -0.16734853 -0.06420932 0.17694436 -0.0024388654
-0.28360793 0.095223315 -0.09245284 -0.07100736 0.037849057 -0.043346692 0.07640238 -0.12899582
-0.153756 -0.15004502 -0.36471176 -0.03328591 -0.07425735 -0.05250151 0.09768989 -0.10899769
-0.14364032 -0.030900875 0.00017358868 0.12475619 -0.096619815 0.14237826 0.16156346 0.05389588
-0.0242291 -0.04535253 -0.1673795 -0.044779286 -0.07101233 -0.033501014 0.057829615 0.18926778
0.015367862 0.019796848 -0.059694845 -0.08114559 -0.09077667 -0.16986857 -0.2698034 -0.061691143
0.010718296 -0.1532941 -0.3267473 -0.019135214 -0.18042149 -0.06409228 -0.061928857 0.14711064
-0.12820746 0.15518254 0.045945276 0.0900087 0.12811534 -0.013779498 -0.008143138 -0.03530203
-0.1465844 0.12238834 -0.1749684 0.09772705 -0.003082871 -0.13793568 0.07631465 0.16026329
-0.26441234 0.10154924 0.16396572 -0.10363806 -0.119589865 0.112053804 0.1698907 0.10243358
-0.13026917 -0.16129419 0.16762148 -0.015286115 -0.13295476 0.0355938 -0.2499425 0.052810334
-0.147774 0.039798435 0.21027862 0.15987232 0.032857053 -0.13506536 0.14047045 0.23739874
-0.3856299 -0.042917255 -0.006681971 -0.056459423 0.08213708 0.07687505 -0.22297469 0.012710139
-0.07430369 -0.114711665 0.2089488 0.053400204 -0.21247067 -0.3083227 -0.28585494 -0.11359394
-0.02016787 -0.1357365 -0.14141881 0.12146553 -0.041008696 0.27657685 0.25043362 0.23910363
00000000: bc69 c23c 9b54 da3d cefd 05bd 0166 643d
00000010: 6618 5c3d c9d0 a23b 66a7 953c 3583 f6bc
00000020: ef04 dfbd cd27 0e3e 7dce 97bd cbce 093d
00000030: db94 dbbc 2b1f b3be 6547 983d 41e2 68bd
00000040: 681f 31be 0a28 933e dee2 523e 460f 45be
00000050: b430 983c 379f 2b3e 63e1 f2bd cd80 23bd
00000060: 42bb 38be 7048 803c 1dbb c13d 9812 a7be
00000070: d450 8d3d 7e66 a53b 9db9 5abd c6d8 22be
00000080: 6897 e0bd e156 e93d 8d41 d3bd 654a 60bb
00000090: 2623 8abd 4726 253e 5cd6 63be a3e7 17bd
000000a0: 2caa b1be 9901 4ebe c47d 30be ea28 57be
000000b0: e344 f03d 4cf6 8f3d c96d 88be be79 52be
000000c0: ef94 56bd d605 9cbb ab9f 8d3d 1611 cdbd
000000d0: 3e55 95bd 30f4 c0bd d607 76bd 6aaa 09be
000000e0: ddc2 8abe b7df 27be eadf 92bd 3a98 0a3e
000000f0: 7eaf ca3d 5788 b93b 49ba fcbc 58b8 ecbd
00000100: 0fdd c4bc d5ab fabd 0134 a8bd f855 50bd
00000110: 0b19 723d 0721 f03c 6948 09bd 126e 1b3e
00000120: a861 bdbd 6206 2a3e a5cb 953d 62ce 8d3d
00000130: ba08 bebd 8732 c7bd a1bc 82bd ec95 223d
00000140: 5055 ef3c 45bd 9c3e 4749 c23c 7829 0abe
00000150: 108f d6bc 8685 113e 1bce c03c 9141 7d3d
00000160: a873 3cbe 5ca5 5d3d 9feb 09be f4c0 08be
00000170: 0ef1 11be 75b5 3bbd 8965 93bd a37b 40bc
00000180: f957 823c 5fe3 a43c 791f 86bc b0d6 c03d
00000190: eebf 73be 708f 5b3d 9047 d63c 4d7f 4bbd
000001a0: ffd4 bcbe 6bd0 8fbe 41f6 53bc 45ba 25bc
000001b0: 5a79 243d 8f89 7a3d e163 aabd 449f 983d
000001c0: ae4b 2ebe 5be4 d83c 7686 febd e542 50bd
000001d0: 4b4d 8d3d d29e ddbd d73c 94bb c5cb 803c
000001e0: 21e1 c4bd c11b b9bd c7ea 1dbe 8749 0d3c
000001f0: 3694 093e 22e0 1dbd 06f5 a63d 1991 843d
00000200: 776e 89be 1d37 c03d 12fa df3c 8866 a73c
00000210: d44f 633d 4f3d 70bd 4b92 653d f431 c93d
00000220: 2029 75be cdf3 1a3d 486a 8abd 7265 a63d
00000230: 6a5d 2bbe 2d80 83bd e730 353e 5fd5 1fbb
00000240: 0f35 91be 7104 c33d ea57 bdbd 4f6c 91bd
00000250: 9d07 1b3d 4d8c 31bd da78 9c3d 7b17 04be
00000260: 3672 1dbe 67a5 19be 80bb babe ce56 08bd
00000270: 3d14 98bd d30b 57bd a311 c83d 2e3a dfbd
00000280: 7316 13be d523 fdbc 5b05 3639 2c80 ff3d
00000290: 9ce0 c5bd 9bcb 113e e470 253e edc1 5c3d
000002a0: 1b7c c6bc 93c3 39bd 8865 2bbe 7c6a 37bd
000002b0: ea6e 91bd 5c38 09bd bfde 6c3d 6acf 413e
000002c0: 7cc9 7b3c 002d a23c 9582 74bd a92f a6bd
000002d0: 1ee9 b9bd 07f2 2dbe ac23 8abe daaf 7cbd
000002e0: cb9b 2f3c 21f9 1cbe 6c4b a7be 74c1 9cbc
000002f0: 69c0 38be d042 83bd 1da9 7dbd 2ca4 163e
00000300: d148 03be 2ce8 1e3e 1d31 3c3d 7b56 b83d
00000310: ab30 033e 67c3 61bc cc6a 05bc dd98 10bd
00000320: 391a 16be bda6 fa3d eb2a 33be 1f25 c83d
00000330: fe09 4abb 033f 0dbe db4a 9c3d 0f1c 243e
00000340: 0e61 87be 0cf9 cf3d a1e6 273e 3140 d4bd
00000350: 88eb f4bd 777c e53d d4f7 2d3e b2c8 d13d
00000360: 4865 05be 4e2a 25be f7a4 2b3e 9d72 7abc
00000370: 4b25 08be ceca 113d edf0 7fbe a64f 583d
00000380: 1152 17be af03 233d 4753 573e 92b5 233e
00000390: 1e95 063d 934e 0abe 7cd7 0f3e a818 733e
000003a0: 4871 c5be 01ca 2fbd 6ff4 dabb ff41 67bd
000003b0: 7c37 a83d ab70 9d3d 7a53 64be 303e 503c
000003c0: 882c 98bd f3ed eabd adf6 553e 2cba 5a3d
000003d0: e991 59be 79dc 9dbe 945b 92be f1a3 e8bd
000003e0: 1737 a5bc 82fe 0abe 18d0 10be ebc2 f83d
000003f0: bcf8 27bd 7b9b 8d3e d638 803e 95d7 743e

linear1.0.bias f4 [128]
0.011874725 -0.2834063 -0.25946066 -0.051401712 -0.2466063 -0.11871463 -0.12811358 -0.058963615
-0.12645747 0.116577886 -0.16236667 -0.026511928 -0.07285531 0.039846156 -0.18055779 -0.09246916
0.085309 0.072079174 0.06290272 -0.12376427 -0.17466079 0.025769878 -0.14880241 -0.06686752
0.06618101 -0.1490822 0.021574156 0.10523763 0.042423338 0.13723323 -0.09353355 -0.15632519
-0.13111188 -0.22524415 -0.04935197 -0.123215795 0.101987705 -0.07302344 -0.08774823 -0.01656328
0.10858672 -0.06056982 0.0004693007 0.02533048 -0.03897876 -0.05095555 -0.06873881 -0.20672005
-0.032266416 -0.016944868 -0.11841388 -0.07145305 -0.047857255 0.04883698 -0.093166865 -0.18412988
-0.07033591 -0.16867495 0.03196454 0.0145416735 -0.09298509 0.12162396 -0.14730603 -0.08327375
-0.16141696 -0.13482408 -0.030465456 -0.1176156 -0.12328344 -0.15052123 -0.005257242 -0.2134587
0.04606655 0.11714088 -0.13225922 0.04123912 -0.15540937 -0.22506827 0.10372465 -0.0006249054
-0.023000007 -0.18668571 -0.17052983 -0.15588576 0.01227398 -0.14728388 0.073493935 -0.17213404
-0.11477588 -0.020884873 -0.055856995 -0.008506975 0.014497795 -0.25659025 0.05659707 -0.0778646
0.0195869 0.010957144 0.07849698 -0.15126884 -0.20567563 -0.05984447 -0.027359637 -0.16970415
-0.005617177 -0.098107204 -0.0012745983 -0.04987208 0.10459215 0.010358834 0.11842815 0.02794362
0.05006965 -0.11381959 -0.052433774 -0.043823186 -0.09079417 0.032054525 0.040772844 -0.1133121
-0.21303844 0.013252268 -0.018248502 -0.03884331 -0.04238297 0.05814649 0.0913293 0.07174868
00000000: 358e 423c a11a 91be 07d8 84be 9a8a 52bd
00000010: 5d86 7cbe a820 f3bd 3530 03be d583 71bd
00000020: 117e 01be 63c0 ee3d 7343 26be 8b2f d9bc
00000030: 2a35 95bd b935 233d 24e4 38be 7960 bdbd
00000040: 7cb6 ae3d 3f9e 933d 24d3 803d 1f78 fdbd
00000050: 47da 32be 5a1b d33c a95f 18be d7f1 88bd
00000060: e989 873d 01a9 18be 49bc b03c d486 d73d
00000070: 18c4 2d3d de86 0c3e 858e bfbd b613 20be
00000080: 3142 06be 67a6 66be 4b25 4abd 9058 fcbd
00000090: eede d03d 508d 95bd 58b5 b3bd b7af 87bc
000000a0: b762 de3d 0f18 78bd 790c f639 de81 cf3c
000000b0: 31a8 1fbd c4b6 50bd efc6 8cbd 6cae 53be
000000c0: ca29 04bd f7cf 8abc fa82 f2bd fa55 92bd
000000d0: f805 44bd 4909 483d 45ce bebd 8b8c 3cbe
000000e0: 460c 90bd 20b9 2cbe 40ed 023d 3340 6e3c
000000f0: f86e bebd fc15 f93d 64d7 16be 6e8b aabd
00000100: 7d4a 25be 530f 0abe b192 f9bc 73e0 f0bd
00000110: 077c fcbd 3d22 1abe f144 acbb eb94 5abe
00000120: 47b0 3c3d 8fe7 ef3d f66e 07be 5aea 283d
00000130: a223 1fbe 4c78 66be 976d d43d b1d0 23ba
00000140: 836a bcbc 8a2a 3fbe 5f9f 2ebe 84a0 1fbe
00000150: ce18 493c 96d1 16be fd83 963d e843 30be
00000160: 9e0f ebbd c116 abbc 4eca 64bd d760 0bbc
00000170: 2988 6d3c cc5f 83be 54d2 673d 7a77 9fbd
00000180: b574 a03c 9885 333c 06c3 a03d 38e6 1abe
00000190: a29c 52be 7a1f 75bd 5121 e0bc edc6 2dbe
000001a0: 4c10 b8bb 6eec c8bd 6c10 a7ba ab46 4cbd
000001b0: 6934 d63d 19b8 293c 758a f23d 05ea e43c
000001c0: d515 4d3d 3f1a e9bd ccc4 56bd f17f 33bd
000001d0: 4bf2 b9bd 9b4b 033d 6d01 273d 2d10 e8bd
000001e0: c026 5abe 0a20 593c e27d 95bc 2a1a 1fbd
000001f0: c499 2dbd 042b 6e3d db0a bb3d f9f0 923d

conv1.0.weight f4 [4, 1, 3]
0.409918 0.12760548 -0.2300728 0.43136314 0.6446954 0.3583154 -0.31041437 0.54646266
0.16017537 0.27496445 0.032005973 -0.5069395
00000000: c6e0 d13e 03ab 023e 3498 6bbe a1db dc3e
00000010: c20a 253f 1e75 b73e a2ee 9ebe fae4 0b3f
00000020: 0305 243e 24c8 8c3e b218 033d c9c6 01bf

conv1.0.bias f4 [4]
-0.14957535 -0.12912081 -0.15185492 -0.115620784
00000000: 482a 19be 3f38 04be db7f 1bbe 97ca ecbd

conv2.0.weight f4 [8, 4, 3]
-0.0012598587 0.10348113 -0.09836574 0.20529611 -0.035757832 0.23931627 -0.015545916 0.13373159
0.40290576 0.15418038 0.40638036 0.33181196 -0.055796396 -0.35000134 0.09280015 0.17175564
-0.23089069 -0.1945462 -0.34513938 -0.11606049 -0.3710551 -0.20072171 -0.18410707 -0.4149207
0.14667821 0.2565651 0.40349334 0.31404176 0.29152927 0.053245235 0.35855678 0.34481195
0.19308864 0.07278169 0.008880731 0.0489702 0.4177122 0.14575566 0.28169662 0.30848703
0.026777975 0.11509563 0.1706812 -0.11601815 -0.16002893 0.30890852 -0.02641499 0.5189459
0.235599 0.081205875 0.0039245146 0.2370871 0.07426465 -0.24689952 0.01703143 -0.056053977
-0.3296819 0.31158257 0.24443667 -0.003669755 0.17025343 0.18415177 0.2597632 0.054386705
0.44278917 0.36614212 -0.063785076 0.039328672 0.14719903 0.0063019223 0.28798008 0.27326512
-0.13647202 -0.06816998 -0.053861655 -0.16557136 0.29214045 0.2166033 -0.0025882695 0.3805971
0.16644931 -0.01340314 -0.16808769 0.48143458 -0.4342615 -0.16627946 -0.42042494 -0.25967163
-0.42135227 -0.16738191 -0.017237123 -0.19712812 -0.18685271 -0.26706517 -0.6389613 -0.387246
00000000: d821 a5ba eaed d33d fa73 c9bd 2539 523e
00000010: ce76 12bd 530f 753e 4cb4 7ebc eff0 083e
00000020: aa49 ce3e 76e1 1d3e 1611 d03e 42e3 a93e
00000030: c38a 64bd 6033 b3be 010e be3d b6e0 2f3e
00000040: 9c6e 6cbe 1e37 47be 1cb6 b0be 1fb1 edbd
00000050: effa bdbe fe89 4dbe 9086 3cbe 7c70 d4be
00000060: d032 163e 805c 833e ae96 ce3e 15ca a03e
00000070: 5343 953e ad17 5a3d c194 b73e 318b b03e
00000080: 07b9 453e 910e 953d 7c80 113c fa94 483d
00000090: 60de d53e f940 153e 8a3a 903e 03f2 9d3e
000000a0: 7c5d db3c 42b7 eb3d 0dc7 2e3e ec9a edbd
000000b0: a0de 23be 4229 9e3e 4064 d8bc a3d9 043f
000000c0: dd40 713e 444f a63d 3799 803b f6c6 723e
000000d0: 1118 983d 3ad3 7cbe 7f85 8b3c db98 65bd
000000e0: 11cc a8be c087 9f3e 9b4d 7a3e 4680 70bb
000000f0: ea56 2e3e 4892 3c3e afff 843e 98c4 5e3d
00000100: 43b5 e23e fb76 bb3e c0a1 82bd 1a17 213d
00000110: 58bb 163e 5b80 ce3b 2072 933e 68e9 8b3e
00000120: 52bf 0bbe b49c 8bbd 0a9e 5cbd 8a8b 29be
00000130: 6f93 953e 41cd 5d3e f59f 29bb a0dd c23e
00000140: b071 2a3e d898 5bbc 2e1f 2cbe 987e f63e
00000150: 8657 debe 2a45 2abe f041 d7be aef3 84be
00000160: 7cbb d7be 2a66 2bbe de34 8dbc f4db 49be
00000170: 5156 3fbe c4bc 88be f892 23bf 1c45 c6be

conv2.0.bias f4 [8]
-0.07890986 0.1300935 -0.051555026 -0.039562214 0.08523379 -0.12081508 -0.13138047 0.11559159
00000000: 7e9b a1bd 3b37 053e 5d2b 53bd fd0b 22bd
00000010: 0e8f ae3d e66d f7bd 9a88 06be 49bb ec3d

linear2.0.weight f4 [65, 1024]
-0.07952652 -0.13338406 -0.14083698 -0.17469311 -0.050195303 -0.06083958 -0.16900885 -0.1931845
-0.15168671 -0.16228019 -0.1598832 -0.038686823 -0.14495999 -0.13344347 -0.08926545 0.071822874
0.17394072 0.20803642 0.06303997 0.015848104 -0.075558804 -0.050371777 -0.075135104 0.120863765
0.06867582 -0.045199737 -0.10253956 -0.12120381 -0.13552174 -0.14294226 -0.10050192 -0.13827856
-0.12957707 -0.064013295 -0.075303994 -0.023477057 0.011684346 -0.009471023 0.07269405 0.10934563
0.024417987 0.06348503 -0.10973863 -0.14276388 -0.103017375 -0.03263038 -0.05876029 -0.0063229715
-0.009649122 -0.024202451 -0.09387592 -0.08104082 -0.11356079 -0.15205975 -0.17366488 -0.16540769
-0.09998171 -0.11509213 -0.11157379 -0.12357067 -0.10642478 0.005013218 0.07228985 0.11885933
0.19144624 0.15379803 0.18258843 0.08951015 0.011376512 0.039706763 -0.06685708 -0.12868705
-0.20497881 -0.1150497 -0.14447802 -0.13179791 -0.12233251 -0.073333755 -0.03129312 0.02793136
0.07859044 0.056171235 0.10604506 0.098773874 0.097170345 -0.00039162437 -0.08495627 -0.083711706
-0.15281174 -0.11306296 -0.07147704 -0.15052654 -0.119574 -0.06704797 0.016879408 0.1637133
0.18393527 0.06122422 0.10853268 -0.005403029 -0.13542593 -0.111810595 -0.14450711 -0.09637621
-0.08084261 -0.08323227 -0.050331283 0.031761095 0.2134501 0.24740589 0.18679039 0.13538477
0.049477767 -0.031588238 -0.068943776 -0.107604116 -0.18575367 -0.21595171 -0.09320226 0.053515077
-0.052024294 -0.17516816 -0.16894951 -0.13140157 -0.09999768 -0.06611005 0.07817703 0.15168536
0.0862741 0.13073266 0.13073641 0.13431078 -0.14477986 -0.024449954 0.18154731 0.2964663
0.24528313 0.26894733 0.10682991 0.010964587 -0.083168976 -0.034490716 -0.13832442 -0.21153066
-0.19260135 -0.21618189 -0.10389423 -0.0860301 -0.13111188 -0.15836248 -0.09257084 -0.1757385
-0.2027995 0.05621324 0.08491348 0.042319734 0.012600189 -0.040740438 -0.0791564 -0.0074849045
0.00043123032 0.06659444 0.021858105 -0.11069746 -0.07287477 -0.05397839 -0.1127057 -0.06370159
-0.07996577 -0.053357925 0.03396326 -0.017389202 0.051823575 -0.061953835 -0.00494926 -0.019005181
-0.08880885 0.039133914 -0.040489174 0.11115391 0.1458294 0.05349195 -0.029599786 -9.612819e-05
-0.038572386 0.019601407 -0.094792105 -0.11817227 -0.07479925 0.02729081 -0.08190959 -0.16458824
-0.25018096 -0.21930955 -0.15421645 -0.19077313 -0.14823481 -0.15166153 -0.14365526 -0.02387646
0.02913561 -0.041245952 -0.077849634 0.011947065 0.12301333 -0.0016750961 -0.14850093 -0.1940568
-0.1965537 -0.19262479 -0.1628374 -0.090272896 -0.10043911 -0.07691271 0.085952796 0.08878844
0.061617594 -0.023280699 -0.053684276 -0.10716481 -0.06753171 -0.012169329 -0.053226825 -0.22147691
-0.24300092 0.006880715 -0.03041669 -0.005714893 -0.10006384 -0.09271473 -0.083904155 0.121523045
0.014157044 0.016952498 -0.11843811 -0.12188197 -0.2243194 -0.19897693 -0.24252623 -0.24341811
-0.18644041 -0.17486627 0.038417418 0.10340528 0.17744677 0.16480957 -0.12514547 -0.16182256
-0.08261995 0.11765943 0.15806825 0.09910277 0.026568618 0.10606784 -0.09126098 -0.14535274
00000000: cdde a2bd d595 08be 9237 10be c0e2 32be
00000010: 9799 4dbd ec32 79bd a810 2dbe 28d2 45be
00000020: c353 1bbe c72c 26be 6cb8 23be 1376 1ebd
00000030: 6470 14be 68a5 08be ced0 b6bd df17 933d
00000040: 841d 323e 8007 553e 1a1b 813d e2d3 813c
00000050: 93be 9abd a352 4ebd 6fe0 99bd 6c87 f73d
00000060: e9a5 8c3d 5c23 39bd 4300 d2bd b439 f8bd
00000070: 36c6 0abe 755f 12be f3d3 cdbd e598 0dbe
00000080: daaf 04be 6719 83bd fb38 9abd f552 c0bc
00000090: b36f 3f3c 5a2c 1bbc 9ee0 943d 9af0 df3d
000000a0: 3b08 c83c 7004 823d a6be e0bd b230 12be
000000b0: c6fa d2bd 6fa7 05bd a1ae 70bd ee30 cfbb
000000c0: 5a17 1ebc 3844 c6bc 0542 c0bd bbf8 a5bd
000000d0: 8f92 e8bd 8db5 1bbe 35d5 31be a260 29be
000000e0: 36c3 ccbd 6cb5 ebbd cd80 e4bd 9f12 fdbd
000000f0: 3cf5 d9bd ec45 a43b b30c 943d 856c f33d
00000100: 7c0a 443e 3b7d 1d3e 76f8 3a3e 1951 b73d
00000110: 8d64 3a3c 8fa3 223d 5dec 88bd 8ac6 03be
00000120: f7e5 51be 2d9f ebbd 0cf2 13be 08f6 06be
00000130: 7889 fabd 0230 96bd 372d 00bd 4fd0 e43c
00000140: 06f4 a03d cf13 663d 272e d93d f549 ca3d
00000150: 3f01 c73d ef52 cdb9 8efd adbd 0b71 abbd
00000160: ae7a 1cbe 8e8d e7bd 8e62 92bd a123 1abe
00000170: 37e3 f4bd 7250 89bd af46 8a3c 76a4 273e
00000180: 8759 3c3e 3fc6 7a3d 6246 de3d e40b b1bb
00000190: 18ad 0abe f4fc e4bd acf9 13be e460 c5bd
000001a0: cf90 a5bd ae75 aabd 2d28 4ebd ec17 023d
000001b0: aa92 5a3e f857 7d3e fb45 3f3e 4ea2 0a3e
000001c0: 33a9 4a3d ab62 01bd 6532 8dbd 8c5f dcbd
000001d0: 3636 3ebe 7222 5dbe d4e0 bebd a032 5b3d
000001e0: 6d17 55bd 485f 33be 1a01 2dbe 228e 06be
000001f0: 95cb ccbd b564 87bd 471b a03d 6853 1b3e
00000200: 7ab0 b03d c8de 053e c4df 053e c488 093e
00000210: 2c41 14be 454b c8bc 8ae7 393e 6eca 973e
00000220: 802b 7b3e 77b3 893e a4c9 da3d d0a4 333c
00000230: 7f54 aabd 2346 0dbd eba4 0dbe 7e9b 58be
00000240: 4a39 45be c95e 5dbe 80c6 d4bd 8d30 b0bd
00000250: 3142 06be c629 22be c895 bdbd cbf4 33be
00000260: acaa 4fbe db3f 663d 1ee7 ad3d 7557 2d3d
00000270: 0671 4e3c 72df 26bd c01c a2bd ee43 f5bb
00000280: c116 e239 aa62 883d c50f b33c 5ab5 e2bd
00000290: 5e3f 95bd 7218 5dbd 3fd2 e6bd fb75 82bd
000002a0: 18c5 a3bd d78d 5abd 0f1d 0b3d cd73 8ebc
000002b0: f544 543d 4ec3 7dbd 672d a2bb c1b0 9bbc
000002c0: 6ae1 b5bd e24a 203d fad7 25bd a9a4 e33d
000002d0: 4d54 153e 601a 5b3d 407b f2bc 6e98 c9b8
000002e0: 14fe 1dbd 2193 a03c 5d22 c2bd 4e04 f2bd
000002f0: 5930 99bd fa90 df3c 37c0 a7bd d289 28be
00000300: b817 80be af92 60be ebea 1dbe 085a 43be
00000310: deca 17be 294d 1bbe 5d1a 13be 9198 c3bc
00000320: cead ee3c 84f1 28bd a16f 9fbd 9fbd 433c
00000330: 6aee fb3d e68e dbba a110 18be d3b6 46be
00000340: 6045 49be 6f3f 45be d9be 26be ffe0 b8bd
00000350: 05b3 cdbd 6984 9dbd 0508 b03d b7d6 b53d
00000360: bb62 7c3d 2ab7 bebc 0be4 5bbd 3979 dbbd
00000370: 114e 8abd de61 47bc 5f04 5abd d8ca 62be
00000380: 3cd5 78be 9f77 e13b 6c2c f9bc ff43 bbbb
00000390: 45ee ccbd 38e1 bdbd f1d5 abbd 13e1 f83d
000003a0: f2f2 673c f7df 8a3c ae8f f2bd 419d f9bd
000003b0: fcb3 65be 9cc0 4bbe cc58 78be 9942 79be
000003c0: 3cea 3ebe 2510 33be 955b 1d3d 26c6 d33d
000003d0: 9bb4 353e d7c3 283e 2226 00be d0b4 25be
000003e0: a634 a9bd 6df7 f03d a5dc 213e 65f6 ca3d
000003f0: 6ea6 d93c 183a d93d 09e7 babd 59d7 14be

linear2.0.bias f4 [65]
-0.13368255 0.062423754 -0.070621304 -0.07108941 -0.026600486 -0.069219306 -0.0053052376 -0.039614804
-0.034025002 -0.058933258 -0.04406607 -0.033441067 -0.04310146 0.008009799 -0.023037704 0.0349855
-0.10753614 0.035917465 -0.013785211 -0.023871582 -0.01393862 -0.042738855 -0.047557186 -0.06993537
-0.059356336 -0.052785646 -0.011876389 0.012001466 0.02491977 -0.029769693 -0.012494218 -0.036826435
-0.012334494 -0.018512422 -0.06131244 -0.005485639 -0.020112406 0.021588095 -0.0063403826 -0.07171333
0.053693153 -0.035679884 -0.016115922 -0.00064863695 -0.0048848717 0.00060516276 -0.011921603 -0.012922444
0.014895532 -0.07868434 -0.057887547 -0.13428397 -0.054040056 -0.022166504 -0.04936006 0.058939904
0.051471155 -0.094635345 -0.11588347 -0.039130744 -0.01768378 -0.086380415 -0.006538066 -0.03647865
-0.030217802
00000000: 14e4 08be 0db0 7f3d e7a1 90bd 5397 91bd
00000010: 43e9 d9bc dac2 8dbd 8fd7 adbb 2243 22bd
00000020: cd5d 0bbd 0064 71bd a07e 34bd 80f9 08bd
00000030: 288b 30bd 883b 033c 91b9 bcbc f54c 0f3d
00000040: e83b dcbd 311e 133d 5edb 61bc 568e c3bc
00000050: cf5e 64bc f00e 2fbd 53cb 42bd 463a 8fbd
00000060: a11f 73bd c335 58bd 3095 42bc cca1 443c
00000070: 8c24 cc3c 92df f3bc 8cb4 4cbc 51d7 16bd
00000080: 9e16 4abc 5da7 97bc c122 7bbd e0c0 b3bb
00000090: c6c2 a4bc 84d9 b03c fcc2 cfbb 70de 92bd
000000a0: 5aed 5b3d 1225 12bd 8a05 84bc 4a09 2aba
000000b0: 4611 a0bb c9a3 1e3a d452 43bc a9b8 53bc
000000c0: 640c 743c 4125 a1bd 7e1b 6dbd bd81 09be
000000d0: 1b59 5dbd 8796 b5bc c62d 4abd f86a 713d
000000e0: 6bd3 523d 2dd0 c1bd 5054 edbd 8f47 20bd
000000f0: 93dd 90bc 37e8 b0bd 463d d6bb a36a 15bd
00000100: 538b f7bc
