课程资料/人工智能/人工智能实验/期末project/DQN_othello/model_defensive.pth (torch_old, 301732 bytes, 8 tensors)

linear1.0.weight f4 [128, 64]
0.015523076 0.07642721 -0.047099337 -0.04371293 -0.0131108165 0.04290612 -0.026097268 0.06805965
-0.030312598 -0.015497819 0.07078913 0.041950732 -0.073648125 -0.08760013 -0.11196497 -0.0040924996
-0.037152752 -0.10767217 -0.0051326603 -0.08399308 0.09077448 -0.044619516 -0.024494737 -0.021453097
-0.05944206 0.04342605 -0.09665896 0.03785491 0.08404866 0.010956496 0.045192927 0.031684265
0.102579415 0.04052812 -0.07638468 0.06576085 -0.094153866 0.023277655 -0.04653442 0.10298662
-0.08974342 0.10370986 -0.06973328 -0.08358173 -0.013802901 0.0018322021 0.032065243 0.0932948
-0.109935984 0.094145164 0.0693813 -0.036048174 -0.08825146 0.096639976 0.007936105 0.09531072
0.046059206 0.08560237 -0.06573674 -0.041216448 0.0051258504 -0.042332366 -0.10998918 -0.076731294
0.025092304 0.077724144 -0.052616283 -0.037565693 -0.029588372 -0.08745311 -0.035397083 0.091473505
0.023226127 -0.078416705 0.09402789 -0.12358843 0.022186518 0.049429342 -0.005576417 0.054202497
-0.11137362 0.117973596 0.08696309 0.064407334 -0.0011695176 -0.04894471 -0.022817299 0.09823035
0.014224842 -0.024867043 0.066464156 -0.11577079 0.10731071 -0.07891253 -0.10398123 0.09246853
-0.07054317 -0.023750603 0.07718447 0.08411485 -0.040344402 -0.014780879 0.106185436 -0.068930134
-0.06777145 -0.015461594 0.11595133 -0.0029577166 0.08744073 0.041248202 -0.07587433 -0.10574211
0.016871423 0.0011242181 0.081960574 -0.05141084 -0.06530073 -0.056262717 -0.07423888 -0.0039206445
-0.06628846 0.09041707 0.096142426 0.06263426 0.04431288 0.039627835 -0.045419767 0.115667924
0.04894799 0.09495649 0.036539286 -0.09764753 0.052501306 0.0041946173 -0.12328473 -0.11881079
0.065390006 -0.083617344 -0.07996102 0.040607527 0.0048176944 0.0641655 0.055638343 0.07332401
-0.11187047 0.09102036 -0.08207953 0.017568931 0.022957385 0.12170336 -0.0491347 -0.09264186
-0.051562473 -0.07140407 0.10918532 -0.023596853 0.046117857 0.02370508 -0.05578199 0.109794274
-0.11405204 -0.026259512 0.117848754 -0.05580716 0.1197322 0.10004853 -0.0503155 0.046947777
-0.04426749 0.06947674 0.08157061 -0.033532158 -0.04836048 0.039432928 -0.006207153 0.08691299
-0.00020620227 0.078600034 -0.047593698 0.0024157465 0.11038521 0.045129985 0.086213306 0.058206663
-0.08330777 0.054104507 -0.029856905 -0.05880864 -0.0006599277 -0.0036735535 -0.09616943 0.08788398
-0.013795093 -0.10764623 0.027012229 -0.118832365 -0.068280056 0.0086197555 -0.12463914 0.08066936
-0.10175833 -0.08889669 -0.058137298 -0.027443096 -0.09627174 0.0724266 0.010128558 0.12436539
-0.04666169 0.046769306 0.011155158 -0.04237266 -0.10875122 -0.05064082 -0.05763927 -0.08010355
-0.07779305 -0.013240263 0.074471354 0.10928249 0.031595975 -0.053189382 0.10968162 -0.041720316
-0.040899754 0.026167393 0.011161998 0.054550335 0.050458953 -0.010459334 0.0013427287 0.010282934
-0.0938559 0.073740155 -0.12246299 0.08732858 0.036508694 -0.08602655 -0.010847092 -0.116291285
-0.093268216 -0.08353382 -0.121621326 -0.093951 -0.09795104 -0.08223659 -0.04615125 -0.10563369
-0.08293113 0.12211539 0.12066746 -0.123992965 -0.023500204 0.015309483 -0.10780372 0.10493466
00000000: 8054 7e3c de85 9c3d 3ceb 40bd 540c 33bd
00000010: c0ce 56bc 54be 2f3d f0c9 d5bc dc62 8b3d
00000020: 2052 f8bc 90ea 7dbc e4f9 903d 88d4 2b3d
00000030: d4d4 96bd b267 b3bd e44d e5bd 601a 86bb
00000040: 7c2d 18bd 3a83 dcbd e02f a8bb 9004 acbd
00000050: f8e7 b93d f4c2 36bd 30a9 c8bc 68be afbc
00000060: 8479 73bd 84df 313d 22f5 c5bd c00d 1b3d
00000070: b421 ac3d e082 333c 381c 393d 5cc7 013d
00000080: 2815 d23d d000 263d 926f 9cbd a0ad 863d
00000090: bed3 c0bd c8b0 be3c e09a 3ebd a6ea d23d
000000a0: 66cb b7bd d665 d43d 52d0 8ebd e62c abbd
000000b0: 9025 62bc 8026 f03a d856 033d 5811 bf3d
000000c0: 1e26 e1bd 2ecf c03d c817 8e3d 40a7 13bd
000000d0: 2ebd b4bd 2eeb c53d 7006 023c 4432 c33d
000000e0: 94a8 3c3d 4c50 af3d fca0 86bd 94d2 28bd
000000f0: c0f6 a73b b464 2dbd 0242 e1bd 4c25 9dbd
00000100: 608e cd3c d62d 9f3d 2c84 57bd 7cde 19bd
00000110: 5063 f2bc 9e1a b3bd 88fc 10bd 7656 bb3d
00000120: b844 be3c f098 a0bd b291 c03d ee1b fdbd
00000130: 80c0 b53c 6c76 4a3d 60ba b6bb 7003 5e3d
00000140: da17 e4bd 249c f13d b419 b23d fee7 833d
00000150: 804a 99ba 407a 48bd 58eb babc fe2c c93d
00000160: 500f 693c f8b5 cbbc 5c1e 883d 3c19 edbd
00000170: b8c5 db3d e49c a1bd 1cf4 d4bd 2460 bd3d
00000180: f078 90bd a090 c2bc e412 9e3d 6844 ac3d
00000190: 2c40 25bd 802b 72bc c077 d93d 3e2b 8dbd
000001a0: c2cb 8abd a052 7dbc e477 ed3d 40d6 41bb
000001b0: 2014 b33d e0f3 283d 0064 9bbd 528f d8bd
000001c0: f035 8a3c 805a 933a f2da a73d 2c94 52bd
000001d0: 64bc 85bd bc73 66bd 8e0a 98bd c078 80bb
000001e0: 3ec2 87bd 962c b93d 52e6 c43d 6446 803d
000001f0: 6c81 353d cc50 223d 140a 3abd 4ee3 ec3d
00000200: b07d 483d 8c78 c23d 38aa 153d 6efb c7bd
00000210: 9c0b 573d 0073 893b b47c fcbd 1253 f3bd
00000220: 32eb 853d 923f abbd 9ac2 a3bd 1454 263d
00000230: c0dd 9d3b 3469 833d 08e5 633d e62a 963d
00000240: 581c e5bd e268 ba3d 5019 a8bd b8ec 8f3c
00000250: 2011 bc3c 9c3f f93d 7841 49bd 04bb bdbd
00000260: 2c33 53bd 4c3c 92bd 8e9c df3d 304e c1bc
00000270: 14e6 3c3d 2831 c23c a87b 64bd d2db e03d
00000280: 1e94 e9bd 301e d7bc b05a f13d 0c96 64bd
00000290: 2836 f53d 3ee6 cc3d a017 4ebd 504c 403d
000002a0: d451 35bd d249 8e3d 7e0e a73d 0459 09bd
000002b0: a415 46bd 6c84 213d 6065 cbbb 70ff b13d
000002c0: 0038 58b9 0ef9 a03d 9cf1 42bd 8051 1e3b
000002d0: a411 e23d 38da 383d 9a90 b03d 1c6a 6e3d
000002e0: 449d aabd b09c 5d3d 7896 f4bc 54e1 70bd
000002f0: 00ff 2cba 00c0 70bb 7af4 c4bd 84fc b33d
00000300: d004 62bc a075 dcbd c048 dd3c 625e f3bd
00000310: 6ad6 8bbd e039 0d3c ce42 ffbd fa35 a53d
00000320: ac66 d0bd 780f b6bd 6021 6ebd 58d0 e0bc
00000330: 1e2a c5bd 6654 943d 40f2 253c 48b3 fe3d
00000340: 5420 3fbd 2c91 3f3d 20c4 363c f48e 2dbd
00000350: f6b8 debd c06c 4fbd 2817 6cbd 540d a4bd
00000360: f651 9fbd b0ed 58bc 7084 983d 80cf df3d
00000370: c86a 013d 1cdd 59bd c2a0 e03d ece2 2abd
00000380: 8086 27bd 005d d63c d0e0 363c 2c70 5f3d
00000390: 0cae 4e3d a05d 2bbc 80fe af3a c079 283c
000003a0: 8637 c0bd 1405 973d e0cd fabd 54d9 b23d
000003b0: 248a 153d b02e b0bd 00b8 31bc 202a eebd
000003c0: 6803 bfbd c813 abbd 9a14 f9bd 6269 c0bd
000003d0: 8e9a c8bd a86b a8bd 1809 3dbd 7a56 d8bd
000003e0: ccd7 a9bd a217 fa3d 8020 f73d 06f0 fdbd
000003f0: 8083 c0bc a0d4 7a3c 32c8 dcbd fce7 d63d

linear1.0.bias f4 [128]
-0.04600568 -0.07013662 -0.07843736 0.10693382 -0.009866312 -0.008115724 -0.048816636 -0.019313738
0.09856367 0.043898493 0.083063215 0.07629916 -0.030174196 -0.09913468 0.12219156 -0.02098769
0.034261703 -0.039737523 -0.069285884 -0.05356504 -0.076837674 0.059086427 0.117129266 0.045799688
-0.016627118 0.015755787 -0.024053767 -0.07295105 -0.026398465 0.11884177 0.082650006 0.08057737
-0.01710014 0.02013813 -0.10532886 -0.01570709 -0.11611514 -0.07807568 0.08536132 0.009794876
-0.055626467 -0.057617143 0.056533784 -0.0704418 0.105543256 0.02293463 -0.047267273 -0.114890516
-0.059111446 0.062251 0.11259188 0.070064396 0.09673402 -0.07372539 0.047344983 0.036827773
-0.08062048 0.0063295364 -0.09483816 0.08376151 0.029889986 -0.09054454 -0.0044486374 0.036047712
-0.032125756 -0.11663616 0.09796983 -0.023064539 0.03985235 -0.020174518 0.09608355 0.10924029
-0.11809693 -0.09700285 -0.05829434 -0.097952545 -0.07120338 -0.003522098 0.03578888 0.07526654
0.0011762828 0.11580926 0.0034195334 0.0059164315 0.0044276267 0.05703044 0.044300064 0.022350237
-0.029581964 0.04691352 -0.023837313 0.07013725 0.030769825 0.08365871 -0.07507093 -0.10122202
-0.012448728 0.09609258 -0.06280808 -0.09789431 0.0705207 -0.11363843 0.023805022 -0.104476616
0.076748684 -0.07446727 -0.09385623 0.024537072 -0.05773838 0.09092817 0.047988027 -0.10269557
0.068594575 -0.06890939 0.1215142 0.045832023 -0.008492574 0.008407384 0.042811945 0.016726226
-0.10329577 0.1187219 -0.05953735 -0.11887118 0.066958904 0.04612714 0.0012083948 0.051571667
00000000: 7470 3cbd caa3 8fbd c4a3 a0bd 1e00 db3d
00000010: 50a6 21bc d0f7 04bc f4f3 47bd d837 9ebc
00000020: c0db c93d e8ce 333d 0c1d aa3d bc42 9c3d
00000030: e02f f7bc 2007 cbbd 923f fa3d 60ee abbc
00000040: 0056 0c3d d0c3 22bd c2e5 8dbd 0467 5bbd
00000050: 125d 9dbd 9c04 723d 78e1 ef3d 7498 3b3d
00000060: 9835 88bc 4812 813c 680c c5bc 5c67 95bd
00000070: 9841 d8bc 5063 f33d 6844 a93d c005 a53d
00000080: 9815 8cbc b8f8 a43c a8b6 d7bd 28ac 80bc
00000090: c6cd edbd 24e6 9fbd ead1 ae3d b07a 203c
000000a0: 94d8 63bd f4ff 6bbd f88f 673d ca43 90bd
000000b0: 1027 d83d 68e1 bb3c 549b 41bd b84b ebbd
000000c0: d81e 72bd e8fa 7e3d 9296 e63d ec7d 8f3d
000000d0: 7c1c c63d 56fd 96bd d0ec 413d b8d8 163d
000000e0: 5a1c a5bd 0068 cf3b 823a c2bd 288b ab3d
000000f0: d8db f43c 6a6f b9bd e0c5 91bb c4a6 133d
00000100: 4c96 03bd f0de eebd 68a4 c83d d8f1 bcbc
00000110: 383c 233d 0845 a5bc 74c7 c43d 60b9 df3d
00000120: cedc f1bd 6ea9 c6bd 0cc6 6ebd 589b c8bd
00000130: 14d3 91bd 00d3 66bb 5c97 123d 5825 9a3d
00000140: 802d 9a3a 682d ed3d 401a 603b a0de c13b
00000150: a015 913b c098 693d fc73 353d d817 b73c
00000160: e055 f2bc 6428 403d 7846 c3bc 1ea4 8f3d
00000170: 0011 fc3c 4255 ab3d cabe 99bd 7e4d cfbd
00000180: c0f5 4bbc 30cc c43d 86a1 80bd d07c c8bd
00000190: 286d 903d 44bb e8bd c002 c33c d6f7 d5bd
000001a0: 6a2e 9d3d 4c82 98bd b237 c0bd f801 c93c
000001b0: 147f 6cbd 8c38 ba3d 188f 443d 0e52 d2bd
000001c0: 507b 8c3d 5e20 8dbd 70dc f83d 5cba 3b3d
000001d0: 7024 0bbc 20bf 093c 945b 2f3d 7005 893c
000001e0: bc8c d3bd 7824 f33d 70dd 73bd bc72 f3bd
000001f0: c021 893d d0ef 3c3d 0063 9e3a d03c 533d

conv1.0.weight f4 [4, 1, 3]
-0.557907 0.35822463 -0.56986463 -0.4295072 -0.21930912 0.2934016 -0.42817026 -0.44408727
0.13521034 -0.1310707 -0.043245554 -0.2505345
00000000: fed2 0ebf 3869 b73e a6e2 11bf 5ee8 dbbe
00000010: 9292 60be bc38 963e 2239 dbbe 685f e3be
00000020: 9474 0a3e 6637 06be 4022 31bd 0f46 80be

conv1.0.bias f4 [4]
0.09502423 -0.2511119 -0.5543083 0.44173253
00000000: 109c c23d bd91 80be 26e7 0dbf c42a e23e

conv2.0.weight f4 [8, 4, 3]
0.101257235 0.083444774 -0.13358063 -0.13896643 -0.20466536 0.070463836 0.1379531 -0.12620813
-0.086374685 -0.16245502 0.058375597 -0.18351446 0.040044606 -0.08104789 -0.1792402 0.0820733
-0.1485278 -0.25602984 0.022170812 0.14214617 0.079095185 0.27621126 -0.24570966 0.2182399
0.19533014 -0.25263786 0.11297962 0.2639711 0.28570122 -0.062077925 0.27970666 -0.18995732
-0.28707218 0.2475512 0.26969063 0.09561834 0.1988014 0.28121674 0.030318737 0.2786275
0.05251184 -0.12097268 -0.28279784 0.1320833 -0.17674667 -0.042722687 0.2658292 0.054901272
0.22260708 0.19199935 -0.098359406 -0.23883358 -0.2266407 0.15580338 -0.1597402 0.2617249
-0.23632063 0.12201786 -0.24622011 -0.27710104 -0.17895387 0.262807 0.050865173 0.0048021376
0.27700144 0.1884929 -0.16470066 -0.067688346 0.19113943 -0.28802273 -0.25731033 0.03901425
0.270719 0.13217089 0.025467962 -0.09812598 -0.17484137 -0.03440085 0.19406044 0.21366459
0.15469071 0.25266623 -0.2840348 0.07986385 0.19836834 0.16177496 -0.2454569 0.21769518
0.23994142 -0.016572535 -0.25535288 -0.15511261 0.039408118 0.17636919 -0.09520316 -0.074404
00000000: f45f cf3d 18e5 aa3d 5cc9 08be 374d 0ebe
00000010: cc93 51be 584f 903d 9443 0d3e b43c 01be
00000020: 36e5 b0bd 9c5a 26be 401b 6f3d 37eb 3bbe
00000030: d005 243d 70fc a5bd be8a 37be 0c16 a83d
00000040: ac17 18be 5816 83be 909f b53c c48e 113e
00000050: a8fc a13d 906b 8d3e 509b 7bbe 487a 5f3e
00000060: a004 483e c059 81be dc61 e73d 3827 873e
00000070: 6e47 923e 6c45 7ebd b635 8f3e 2c84 42be
00000080: 20fb 92be 107e 7d3e e414 8a3e 8cd3 c33d
00000090: 9892 4b3e a4fb 8f3e 005f f83c 44a8 8e3e
000000a0: a816 573d 86c0 f7bd e1ca 90be d840 073e
000000b0: 14fd 34be fcfd 2ebd c41a 883e 28e0 603d
000000c0: 1cf3 633e 7a9b 443e a870 c9bd ca90 74be
000000d0: 8014 68be ec8a 1f3e ef92 23be ce00 863e
000000e0: 09fe 71be 80e4 f93d 2021 7cbe 30e0 8dbe
000000f0: af3f 37be a48e 863e 0058 503d 405b 9d3b
00000100: 22d3 8d3e 4804 413e 4aa7 28be 30a0 8abd
00000110: 0eba 433e b777 93be 2ebe 83be 68cd 1f3d
00000120: ae9b 8a3e ce57 073e 30a2 d03c 46f6 c8bd
00000130: 9e09 33be e8e7 0cbd c8b7 463e e4ca 5a3e
00000140: 3e67 1e3e 785d 813e 026d 91be a88f a33d
00000150: 1221 4b3e 56a8 253e 0e59 7bbe 7ceb 5e3e
00000160: 34b3 753e 20c3 87bc 9dbd 82be d7d5 1ebe
00000170: 686a 213d 209a 343e e0f9 c2bd 2061 98bd

conv2.0.bias f4 [8]
-0.1341964 0.27720803 0.17992643 -0.24996397 -0.15373576 -0.015573859 0.23990208 -0.09938569
00000000: c86a 09be 36ee 8d3e a23e 383e 8ef6 7fbe
00000010: e86c 1dbe 8029 7fbc e4a8 753e ba8a cbbd

linear2.0.weight f4 [65, 1024]
0.029411621 -0.021815341 -0.018467646 -0.028147355 0.025003355 0.0053029507 -0.026940674 0.0019776337
-0.029203076 -0.0027635694 0.015580535 -0.022382919 0.026901007 0.010762084 -0.0070739053 0.028405447
0.019069064 -0.013023697 -0.013916183 0.009169009 0.01999649 0.0127340965 0.009116791 -0.022155542
-0.004156634 0.03085015 -0.0032156333 -0.009956434 -0.007720586 0.01834894 0.0055157207 0.014445584
-0.01995264 -0.0032108724 0.00038647652 -0.026182268 -0.016701419 0.026720867 -0.012802765 -0.014934894
-0.012198556 0.025169402 0.0027098656 -0.005088553 -0.019558582 0.012546316 0.019846093 -0.009894736
-0.010294039 -0.02806449 0.0029888004 0.015793126 -0.00456357 -0.002816897 0.027242828 -0.013261646
-0.007819261 0.023967441 -0.02845003 0.02781874 -0.030943848 0.016889978 -0.024808072 0.023297302
0.015720699 -0.0021005534 0.025495812 -0.01662371 0.00899715 0.0062284134 0.020788353 0.009698413
0.028338749 0.00024337322 -0.025169771 -0.027732436 -0.005172711 -0.01836263 0.028636768 0.017805435
-0.01350379 -0.025894426 -0.005207438 0.02756944 -0.010110185 0.020611573 0.009506971 -0.013725307
0.008397229 -0.020323806 0.010459699 -0.02970757 -0.028870549 -0.0150538385 0.009520683 0.0058274604
-0.020328756 -0.020526111 -0.018345594 0.015454363 0.012051202 0.00922687 -0.008727472 0.023789838
-0.019752957 -0.014195893 0.018013034 0.0038797148 -0.014796276 -0.029431272 0.012910627 0.029843997
0.002301354 -0.0102252215 -0.014722511 0.0070040375 0.0292457 0.013498783 0.005295776 0.022772312
0.017624695 0.020418711 0.020463493 0.010178398 0.021110702 0.0035612695 0.0082734525 0.013265107
0.00026317313 0.022415861 0.028262537 -0.02706125 0.029788684 0.0014204644 -0.008435775 0.005827371
-0.019354261 -0.021954585 -0.0011169091 0.030755628 -0.005341023 -0.027774714 0.007867999 -0.022318497
0.014375307 0.0068234615 -0.02924525 0.021603901 0.029909387 -0.010468431 0.015900671 -0.01215459
0.006412614 -0.023189869 -0.0050506704 0.0044621937 0.024103213 0.019318536 -0.005245 0.013267074
0.012854189 0.015011858 0.0013774335 -0.0034296624 -0.0048689507 0.0072052144 -0.014076285 0.019372083
-0.019924901 -0.01732532 -0.013703801 0.024795964 -0.030029658 0.0054431 -0.01438478 0.007416766
0.02061214 -0.01848011 0.030435346 -0.009886015 0.026151944 -0.010736924 -0.022371523 -0.019080441
-0.0058406293 -0.014704376 -0.0028055646 0.020481575 -0.0046119057 -0.017442029 -0.021503832 0.017884068
-0.013995629 -0.010430131 0.0073920004 -0.003999099 0.02520392 0.028605316 0.004836194 0.007395044
0.026768856 0.017211597 0.0018799156 0.0055454895 0.015887674 -0.023166094 -0.0164539 0.017457709
-0.021800041 0.027019307 0.0033631101 -0.027168877 -0.016781539 0.01681497 0.0016578361 -0.015492618
0.026418742 0.01975742 -0.0053843632 0.024260312 0.0060137548 -0.0036621839 0.0067940615 -0.02880628
0.010269202 -0.017968722 -0.020820152 -0.020533673 0.029813424 0.0011982247 0.0009767003 0.0060316212
0.024679858 -0.018641818 -0.004723899 -0.015192285 -0.014678769 -0.029560156 -0.0226296 -0.010307524
-0.027139299 0.0016528964 -0.026067708 -0.006800238 -0.016695458 -0.003059119 0.026084073 -0.012969125
-0.0073312037 -0.018184807 0.020670746 -0.017274778 -0.021193158 -0.02674381 0.025413398 0.012794979
00000000: a4f0 f03c 16b6 b2bc 7649 97bc 4895 e6bc
00000010: d6d3 cc3c 60c4 ad3b b0b2 dcbc 309b 013b
00000020: 4a3b efbc 001d 35bb 8045 7f3c 625c b7bc
00000030: 805f dc3c 7453 303c 38cc e7bb 8ab2 e83c
00000040: ba36 9c3c 5861 55bc b400 64bc 9c39 163c
00000050: aecf a33c aca2 503c 985e 153c 8a7f b5bc
00000060: 6034 88bb 74b9 fc3c 60bd 52bb 5020 23bc
00000070: f8fc fcbb 8450 963c 38bd b43b 2cad 6c3c
00000080: b873 a3bc 806d 52bb 00a0 ca39 327c d6bc
00000090: 6ad1 88bc b8e5 da3c b0c2 51bc 7cb1 74bc
000000a0: 74dc 47bc 1030 ce3c 0098 313b e0bd a6bb
000000b0: 5239 a0bc 108f 4d3c 4694 a23c 881d 22bc
000000c0: 54a8 28bc 80e7 e5bc c0df 433b 9660 813c
000000d0: 008a 95bb b09b 38bb 5a2c df3c 6047 59bc
000000e0: 5c1c 00bc 5e57 c43c 0a10 e9bc 20e4 e33c
000000f0: f47d fdbc da5c 8a3c 4c3a cbbc fcd9 be3c
00000100: b2c8 803c 70a9 09bb 98dc d03c 722e 88bc
00000110: c868 133c b817 cc3b 564c aa3c 18e6 1e3c
00000120: aa26 e83c 0032 7f39 d630 cebc 222f e3bc
00000130: d87f a9bb 3a6d 96bc a897 ea3c b4dc 913c
00000140: 003f 5dbc 8c20 d4bc 28a3 aabb 4ed9 e13c
00000150: 30a5 25bc 9ad9 a83c 20c3 1b3c 1ce0 60bc
00000160: 8894 093c 1c7e a6bc 285f 2b3c 4a5d f3bc
00000170: ee81 ecbc 60a4 76bc a4fc 1b3c 48f4 be3b
00000180: 7e88 a6bc 6026 a8bc 8049 96bc 4c34 7d3c
00000190: 6872 453c 4c2c 173c acfd 0ebc e8e2 c23c
000001a0: f4d0 a1bc e495 68bc 1290 933c d042 7e3b
000001b0: 146c 72bc da19 f1bc 1887 533c 667b f43c
000001c0: 50d2 163b b087 27bc b036 71bc 2082 e53b
000001d0: ae94 ef3c 002a 5d3c 3088 ad3b 008d ba3c
000001e0: aa61 903c 2445 a73c 0ea3 a73c 4cc3 263c
000001f0: 5af0 ac3c 3064 693b 608d 073c e455 593c
00000200: 80fa 8939 78a1 b73c d686 e73c 8eaf ddbc
00000210: 6607 f43c e02e ba3a 3436 0abc 88f3 be3b
00000220: d48c 9ebc 1ada b3bc 4065 92ba 3af3 fb3c
00000230: c003 afbb cc87 e3bc c8e8 003c 48d5 b6bc
00000240: 6886 6b3c 5897 df3b bc93 efbc aafa b03c
00000250: 8804 f53c c883 2bbc 2042 823c 0c24 47bc
00000260: e820 d23b aef8 bdbc 1880 a5bb 9837 923b
00000270: 1a74 c53c e841 9e3c 40de abbb 245e 593c
00000280: 609a 523c 4cf4 753c 008b b43a 30c4 60bb
00000290: b88b 9fbb b819 ec3b 38a0 66bc 34b2 9e3c
000002a0: 8c39 a3bc d4ed 8dbc e885 60bc e820 cb3c
000002b0: c200 f6bc 085c b23b 24ae 6bbc 5808 f33b
000002c0: cada a83c 9a63 97bc 8c53 f93c f4f8 21bc
000002d0: 9a3c d63c ece9 2fbc 7c44 b7bc 964e 9cbc
000002e0: c062 bfbb a0ea 70bc 90dd 37bb fac8 a73c
000002f0: 781f 97bb 96e2 8ebc ce28 b0bc 9c81 923c
00000300: ec4d 65bc 24e3 2abc 9838 f23b e00a 83bb
00000310: 7478 ce3c b255 ea3c f078 9e3b 2052 f23b
00000320: 5c4a db3c 56ff 8c3c 8067 f63a f0b6 b53b
00000330: de26 823c d2c6 bdbc 54ca 86bc 7803 8f3c
00000340: 0096 b2bc 9857 dd3c a067 5c3b 4491 debc
00000350: 7079 89bc 8cbf 893c c04b d93a c0d4 7dbc
00000360: 1e6c d83c 50da a13c 506f b0bb 90bd c63c
00000370: 080f c53b 4001 70bb b8a0 de3b 26fb ebbc
00000380: 2840 283c 2433 93bc 068f aabc 3c36 a8bc
00000390: 483b f43c c00d 9d3a a004 803a e8a4 c53b
000003a0: 6a2d ca3c bab6 98bc f0ca 9abb 10e9 78bc
000003b0: 387f 70bc 2428 f2bc b661 b9bc e4e0 28bc
000003c0: 3c53 debc 00a6 d83a f28b d5bc 88d4 debb
000003d0: eac4 88bc 807b 48bb 44ae d53c 747c 54bc
000003e0: 983a f0bb 4ef8 94bc b255 a93c d683 8dbc
000003f0: 469d adbc d615 dbbc c22f d03c 08a2 513c

linear2.0.bias f4 [65]
0.02960682 0.008435164 -0.015039075 0.017813534 -0.003304433 -0.019944012 0.025190812 0.02508197
-0.025652632 -0.019536179 -0.004078582 0.02871824 -0.026456326 0.0008555278 -0.027349066 -0.026792329
0.030346852 -0.014502618 0.019812092 -0.015175022 0.017917063 -0.020847186 0.022016611 -0.028066188
0.02621901 -0.006003339 0.0059626848 -0.016213708 -0.025850426 0.009649999 0.010463327 -0.0022846013
0.008280229 0.0064975955 0.0072971582 0.024741098 0.015490234 -0.009488173 0.0011386573 -0.021304835
0.025032457 7.728115e-05 0.024145 0.03120929 -0.010386549 0.0073403865 -0.012634706 0.02594024
0.00479592 0.025552869 0.0074240267 0.015283294 -0.00013997406 -0.0049027167 0.009855844 -0.031057425
-0.0001895167 0.0018633716 0.03026922 0.0065404326 0.022294663 -0.013275396 0.02011206 0.02822841
-0.025578592
00000000: 008a f23c a433 0a3c 7466 76bc b0ed 913c
00000010: 308f 58bb a061 a3bc f65c ce3c b478 cd3c
00000020: 7825 d2bc 560a a0bc a0a5 85bb 8442 eb3c
00000030: f0ba d8bc 8045 603a 260b e0bc 967b dbbc
00000040: f699 f83c 649c 6dbc f84c a23c a8a0 78bc
00000050: cec6 923c b8c7 aabc 2e5c b43c 10eb e5bc
00000060: 40c9 d63c a8b7 c4bb a062 c33b 9cd2 84bc
00000070: 46c4 d3bc 081b 1e3c 606e 2b3c 40b9 15bb
00000080: cca9 073c c8e9 d43b 001d ef3b d8ad ca3c
00000090: c0ca 7d3c 4874 1bbc 003f 953a 7a87 aebc
000000a0: de10 cd3c 0012 a238 bccb c53c a0aa ff3c
000000b0: 582c 2abc a087 f03b cc01 4fbc a080 d43c
000000c0: 1827 9d3b 4054 d13c 4045 f33b c866 7a3c
000000d0: 00c6 12b9 f8a6 a0bb 687a 213c 246c febc
000000e0: 00b9 46b9 603c f43a 28f7 f73c 2051 d63b
000000f0: 4ca3 b63c 0c81 59bc 0cc2 a43c 443f e73c
00000100: 328a d1bc
