课程资料/人工智能/人工智能实验/期末project/DQN_othello/model_1219_0011先手.pth (torch_old, 301732 bytes, 8 tensors)

linear1.0.weight f4 [128, 64]
00000000: 6315 9341 03e7 4ac0 7716 a640 3fa8 8240
00000010: d0af 2241 32c1 9f41 8218 1cc1 4d97 b242
00000020: c3e3 5241 934a 91c1 9f23 2b41 0469 2ac2
00000030: 0524 d140 bcda 1ac2 a4ea 5b42 5719 0cc3
00000040: f923 f5c1 599e 01c1 9e3f 6d41 f42d ebc1
00000050: 7a8d da41 3377 bb40 102f 1643 7a4c 5f42
00000060: 9af3 a242 824b f3c2 02cc 1843 6e3a 3ac3
00000070: 0909 3a43 f85e 2bc3 09a6 d042 70ba 5cc2
00000080: 38ba 06c2 bc3a b2c1 c0e8 eec1 462c 3a43
00000090: 6740 3ac3 44bd 9142 66b9 92c2 fffa 1742
000000a0: 1fb7 a541 01e4 6241 0b6b 9141 a158 02c3
000000b0: 3627 3443 004e 17c2 f1f8 8941 cb62 d13f
000000c0: 4998 97c1 6036 57c1 8b0e 57c1 0938 a640
000000d0: 88c7 24c3 de39 c340 15d0 3141 018d 9bbf
000000e0: 45cc 9841 9c2b 22c0 3e7a 9e41 a6d1 a8c1
000000f0: 604b 1a43 ec43 07c3 b69d fb42 7ea4 52c2
00000100: bebc de40 3241 ae40 ba3e a5bf 3a55 1941
00000110: 7915 fb3f 186c 8541 04a5 4ec1 2a1e 2a42
00000120: b9d7 2641 7197 77c1 e455 4741 900e 61c1
00000130: 2fb2 f840 d21f 07c2 2a08 4c42 6bec adc2
00000140: 8582 cec1 f490 5ec1 dfec 9d40 244d 9ec1
00000150: 4cf7 b73f a9bb 4041 cf16 ba42 0d14 c641
00000160: 3845 8b42 a2f5 99c2 140c bd42 fb20 e3c2
00000170: df1b e342 5be4 d2c2 6f1f 6842 970e e3c1
00000180: c687 e5c1 cb1d 91c1 ca97 73c1 0a52 e342
00000190: e45d e3c2 7942 d341 70ba 09c2 d07d 2a41
000001a0: 55b8 6741 d538 9c40 ba97 9241 f841 99c2
000001b0: ed95 db42 3ea8 00c2 02c9 9541 1de4 4941
000001c0: f0c8 14c1 d4ac 27c1 7c26 65c1 1673 7241
000001d0: f92d c8c2 0f13 7e41 bc5c 0740 b804 00c1
000001e0: dec8 1a41 a12d 643f 46e3 4a41 4055 63c1
000001f0: 1231 bb42 15f5 99c2 5861 8f42 4da6 84c1
00000200: c1e9 cf40 ede3 b140 ddf7 a0bf d688 0e41
00000210: 6c13 1f40 ad83 7841 8770 3cc1 1ccd 1142
00000220: 5b4f 2d41 e592 74c1 3e4e 5041 84b3 5fc1
00000230: c0c3 0841 ae9c 07c2 f158 4c42 250f adc2
00000240: 1e9a d2c1 76f9 5dc1 ad9a 9740 1c0a 9fc1
00000250: 28cc cc3f c968 3b41 c696 bb42 1a65 bc41
00000260: 050c 8c42 77db 99c2 731e bd42 2adf e2c2
00000270: 1a22 e342 f021 d2c2 924c 6742 97e6 dac1
00000280: dca7 eec1 fd56 92c1 2c6a 72c1 b0dc e242
00000290: 202f e3c2 6c48 d141 acaa 09c2 746e 2341
000002a0: 7f52 7941 236c a440 70c9 8e41 9fa7 98c2
000002b0: 4aa5 db42 c3a5 00c2 14e3 9441 5661 4a41
000002c0: 5529 17c1 eb9f 2ec1 8ff7 65c1 fda7 7041
000002d0: 79bf c7c2 b89e 7c41 4237 0440 3924 fac0
000002e0: 7e0e 1341 bfb0 f73f c9a3 4141 3399 61c1
000002f0: a054 bb42 259a 99c2 6f56 8e42 3dd1 80c1
00000300: 92fe f640 c487 9d40 1e4f 0fbf cadd 1141
00000310: 8369 1c40 1262 8041 3eed 46c1 8ca8 1342
00000320: e626 2041 f4c2 78c1 3ea8 4741 68a7 61c1
00000330: c8c7 f940 3348 07c2 7aa5 4d42 7104 aec2
00000340: b724 cbc1 6d78 5fc1 7e66 a540 ae05 a2c1
00000350: cafc b33f 52e7 3d41 5b8b ba42 c0e2 c141
00000360: 4327 8b42 a6c6 99c2 68ab bc42 883d e4c2
00000370: e437 e442 4ff2 d2c2 5fe1 6642 3a4b e1c1
00000380: 6477 e6c1 3ddd 8ec1 d83e 70c1 7c37 e442
00000390: 80c8 e3c2 13af d641 e1f9 0ac2 40c4 2c41
000003a0: 408c 6c41 32f2 9c40 c456 9141 4de9 99c2
000003b0: 28ad db42 456f 00c2 079a 9341 771f 4c41
000003c0: a065 12c1 a78c 2dc1 908d 61c1 dd8c 7241
000003d0: c315 c8c2 cc93 8141 38a1 f53f 28e1 fdc0
000003e0: 3ef9 1641 4357 af3f 7649 4641 cdb7 61c1
000003f0: 3404 ba42 dc95 99c2 bd6d 8e42 fad4 7dc1
18.385443 -3.1703498 5.1902423 4.083038 10.167923 19.969334 -9.755983 89.29551
13.180606 -18.161413 10.696197 -42.602554 6.535647 -38.713608 54.97914 -140.09898
-30.642565 -8.101159 14.828032 -29.397438 27.31908 5.8583007 150.18384 55.824684
81.475784 -121.64748 152.7969 -186.22824 186.0353 -171.37097 104.32429 -55.182068
-33.681854 -22.278679 -29.863647 186.17294 -186.25157 72.86966 -73.36211 37.995113
20.714415 14.180665 18.177267 -130.3462 180.15317 -37.82617 17.246553 1.6358274
-18.949358 -13.450775 -13.441051 5.19434 -164.77942 6.100814 11.113301 -1.2152406
19.099741 -2.5339117 19.809689 -21.102367 154.29443 -135.26532 125.80803 -52.660637
6.96054 5.4454584 -1.2909768 9.583307 1.9615928 16.67778 -12.915287 42.529457
10.427667 -15.474473 12.458469 -14.066055 7.771751 -33.781075 51.007973 -86.961754
-25.81373 -13.910389 4.935165 -19.787666 1.4372344 12.045815 93.04455 24.75979
69.63519 -76.97975 94.52359 -113.564415 113.554436 -105.44601 58.030697 -28.382124
-28.691296 -18.139547 -15.224558 113.66023 -113.68338 26.407457 -34.432068 10.655716
14.482503 4.8819375 18.324085 -76.628845 109.79282 -32.1643 18.723148 12.618192
-9.299057 -10.479694 -14.321896 15.153097 -100.08979 15.879653 2.115035 -8.001152
9.67404 0.89132124 12.680487 -14.208313 93.59584 -76.978676 71.690125 -16.581202
6.4972844 5.559073 -1.2575642 8.908407 2.4855604 15.532147 -11.7774725 36.450302
10.831874 -15.285863 13.019102 -13.981327 8.547791 -33.903008 51.086857 -86.52958
-26.325253 -13.873404 4.7376313 -19.879936 1.5999804 11.713082 93.79448 23.549366
70.023476 -76.92864 94.55947 -113.43587 113.566605 -105.066284 57.824776 -27.362593
-29.831963 -18.292475 -15.150921 113.43103 -113.59204 26.160362 -34.41667 10.214466
15.582641 5.1382003 17.848358 -76.327385 109.82283 -32.161877 18.610878 12.648764
-9.447591 -10.914042 -14.372939 15.041013 -99.87397 15.78875 2.0658727 -7.8169217
9.191038 1.9350814 12.102487 -14.099902 93.66528 -76.80106 71.168816 -16.102167
7.7185755 4.922823 -0.559801 9.116648 2.44394 16.047886 -12.43292 36.914597
10.009497 -15.547596 12.478575 -14.103371 7.8056374 -33.820507 51.4116 -87.008675
-25.392927 -13.966901 5.1687613 -20.252773 1.406152 11.868975 93.27218 24.235718
69.57668 -76.887985 94.33478 -114.12018 114.10916 -105.47326 57.72009 -28.161732
-28.808296 -17.858027 -15.015343 114.10837 -113.8916 26.835485 -34.744022 10.797913
14.784241 4.904565 18.167366 -76.955666 109.838196 -32.10866 18.450209 12.757682
-9.149811 -10.846839 -14.097061 15.15939 -100.0425 16.197166 1.9189825 -7.933735
9.43585 1.3698505 12.392935 -14.107373 93.00821 -76.792694 71.21433 -15.864496

linear1.0.bias f4 [128]
00000000: a10a 3a43 c01f e342 b30f e342 c2ee e342
00000010: d4a9 e342 b0f5 e242 1453 e442 484c e342
00000020: ab57 e342 3233 e342 8ce9 e242 06e5 e342
00000030: 1dac e242 52cb e342 f1fd e242 9670 e342
00000040: b0f8 e342 4983 e342 eda9 e342 c92b e442
00000050: 7f31 e342 3184 e342 3dd8 e242 2d97 e342
00000060: 7a4b e342 c0c3 e342 5569 e342 fadf e342
00000070: 071d e342 d726 e442 d086 e342 6e43 e342
00000080: d97c e342 90cb e242 887e e342 ff43 e442
00000090: 15cc e242 64e5 e342 1b08 e442 8e40 e342
000000a0: d8e1 e342 61dc e342 cb1d e342 5dad e342
000000b0: 6b0d e342 294d e442 b0ec e242 04e4 e342
000000c0: 4f3a e342 7adb e342 2c19 e342 c682 e342
000000d0: 9ac4 e242 875c e442 23eb e242 f711 e342
000000e0: b6fc e342 969f e242 0d78 e342 22f7 e242
000000f0: daa6 e342 000d e442 9201 e342 c3bd e342
00000100: b214 e342 26cd e342 e26c e342 7145 e442
00000110: 08d1 e342 cac2 e342 53b6 e242 97ca e342
00000120: 1f64 e242 fafe e342 077d e342 20fc e242
00000130: c617 e442 10f3 e342 a1f2 e242 9726 e342
00000140: 7611 e442 0159 e342 3208 e442 8680 e342
00000150: fa26 e342 ecce e342 ca3f e342 b6db e342
00000160: dcc5 e342 4820 e342 f617 e442 2f67 e342
00000170: 76c0 e342 ba67 e342 3ca5 e342 1afe e242
00000180: d923 e442 4ddf e242 da89 e342 4b37 e342
00000190: 37ac e242 1fc0 e342 1cf1 e242 99a2 e342
000001a0: abf8 e242 aeb0 e342 a71d e342 fb7d e342
000001b0: 1905 e342 3419 e442 90c0 e342 d15f e342
000001c0: ce1d e442 ce0e e342 071c e342 2a60 e442
000001d0: 2a74 e342 05e2 e342 7916 e342 62d8 e342
000001e0: 7233 e342 457e e342 9c22 e442 b015 e342
000001f0: 14c4 e342 9fc4 e242 e2a7 e342 8bf9 3943
186.04152 113.56201 113.53066 113.966324 113.831696 113.47986 114.16226 113.64899
113.67123 113.59999 113.45615 113.94731 113.33616 113.89711 113.49598 113.719894
113.98572 113.75642 113.83189 114.08552 113.59667 113.75819 113.42234 113.795265
113.647415 113.882324 113.70573 113.937454 113.556694 114.07586 113.763306 113.6317
113.74384 113.39758 113.74713 114.132805 113.3986 113.94803 114.01583 113.62608
113.9411 113.93043 113.55819 113.8386 113.52621 114.1507 113.46228 113.94534
113.613884 113.928665 113.549164 113.75542 113.38399 114.18072 113.45925 113.53509
113.993576 113.31169 113.734474 113.48268 113.82588 114.02539 113.50307 113.87063
113.54042 113.90068 113.71266 114.13563 113.908264 113.88045 113.3561 113.89568
113.19555 113.998 113.744194 113.49243 114.04643 113.97473 113.473885 113.57537
114.0341 113.673836 114.01601 113.75102 113.576126 113.904144 113.62459 113.92912
113.886444 113.56305 114.0468 113.70153 113.8759 113.70259 113.82272 113.49629
114.070015 113.436134 113.76924 113.607994 113.33636 113.87524 113.47092 113.81757
113.48568 113.84508 113.557915 113.746056 113.50996 114.049225 113.8761 113.68714
114.05821 113.528915 113.55474 114.18782 113.72688 113.941444 113.54389 113.92262
113.60048 113.74662 114.0676 113.54236 113.882965 113.384026 113.827896 185.97478

conv1.0.weight f4 [4, 1, 3]
00000000: e520 fb41 3f1c f341 43d2 fc41 6d36 0342
00000010: 1f08 f441 e337 0042 234c f241 699f fc41
00000020: 5d26 f541 e610 0342 9c2a f541 ae5b 0042
31.391062 30.388792 31.602667 32.80315 30.503965 32.054577 30.287176 31.577837
30.643732 32.766502 30.645805 32.08953

conv1.0.bias f4 [4]
00000000: d7c0 6043 3f74 6043 38d9 6043 b703 6143
224.75328 224.45409 224.84851 225.01451

conv2.0.weight f4 [8, 4, 3]
00000000: 1829 3042 3b90 3042 5685 3042 f185 3142
00000010: 12f2 2b42 8942 2e42 a812 2e42 15f0 2f42
00000020: 92a7 3042 0c26 3142 99b4 2b42 22b9 2f42
00000030: dff0 2e42 e78e 3042 35c9 2e42 e1f8 2e42
00000040: 50ae 2f42 90f1 2e42 9fb3 2e42 6d44 2e42
00000050: 5024 3142 7fe1 2f42 bb82 2b42 f857 2f42
00000060: ef84 2f42 a2a3 2e42 bbc9 2e42 a4e4 2e42
00000070: 5df3 2c42 34d2 2f42 ba60 3042 777e 3042
00000080: 79cb 2f42 4a46 2f42 009c 2a42 1777 2f42
00000090: c8ba 3042 9b17 2d42 ae98 2f42 a21a 2f42
000000a0: 3df7 2b42 a484 2e42 9ef6 2d42 abe2 2f42
000000b0: 70b7 2e42 74a6 2f42 64e6 2c42 cebe 2f42
000000c0: f580 3142 065c 2f42 4fea 2f42 09e9 2f42
000000d0: ffc4 2942 4ee4 3042 ec42 2f42 f8d0 3142
000000e0: a89c 3042 cd67 2f42 a747 2942 7114 3042
000000f0: ca33 3042 19e7 2d42 76ad 2f42 71a2 2f42
00000100: 132a 2942 0992 2f42 772d 2d42 c1d9 3042
00000110: 23df 2e42 d6eb 2d42 5f6c 2842 bde2 2e42
00000120: 5bc9 2f42 2a76 3042 b6f0 2f42 124f 2f42
00000130: 831b 2b42 645b 2f42 308d 2e42 2fd5 2f42
00000140: ec9e 2f42 48a5 2e42 d657 2942 d4fa 2f42
00000150: b828 3042 85d9 3142 f633 2f42 f03b 3042
00000160: 3f42 2e42 2269 2f42 2e70 2f42 a17f 3042
00000170: 37ca 3142 75bc 2f42 c296 2a42 37d3 2d42
44.04013 44.14085 44.13021 44.380802 42.986397 43.564976 43.51822 43.984455
44.163643 44.287155 42.926365 43.930794 43.735226 44.139553 43.69649 43.743046
43.920227 43.7359 43.67541 43.566822 44.28546 43.97021 42.877666 43.835907
43.879818 43.659798 43.697002 43.72328 43.23766 43.955276 44.09446 44.1235
43.948704 43.81864 42.652344 43.8663 44.182404 43.273052 43.8991 43.77601
42.991444 43.62953 43.490837 43.971355 43.67914 43.91255 43.22499 43.936333
44.375935 43.839867 43.978817 43.977573 42.44238 44.222954 43.815353 44.45407
44.152985 43.851368 42.319973 44.019962 44.050575 43.47568 43.919395 43.908634
42.29109 43.892612 43.2944 44.21265 43.717907 43.48031 42.10583 43.721424
43.946636 44.115395 43.98507 43.827217 42.776867 43.83925 43.63788 43.958187
43.905197 43.661407 42.335777 43.99495 44.039764 44.46242 43.800743 44.058533
43.564693 43.85267 43.85955 44.124638 44.447475 43.93404 42.647224 43.456264

conv2.0.bias f4 [8]
00000000: 88db 5f43 55c3 5f43 29b4 5f43 5596 5f43
00000010: c2a3 5f43 f59b 5f43 a2bc 5f43 b8e8 5f43
223.85754 223.76302 223.70375 223.58723 223.63968 223.6092 223.73685 223.90906

linear2.0.weight f4 [65, 1024]
00000000: 64eb 1543 41c9 1543 8be3 1543 82ba 1543
00000010: 94dc 1543 d5dd 1543 1fe6 1543 f1cf 1543
00000020: 67e5 1543 6be0 1543 05d8 1543 4eed 1543
00000030: e8c2 1543 eff0 1543 76b9 1543 94e2 1543
00000040: d5c4 1543 eacc 1543 2ad2 1543 a7dc 1543
00000050: f6ce 1543 4ee4 1543 2cd7 1543 f3e7 1543
00000060: 97bf 1543 7af1 1543 add6 1543 11ef 1543
00000070: 96d0 1543 fddd 1543 f7e8 1543 8bca 1543
00000080: eaea 1543 23cf 1543 e1d4 1543 40bd 1543
00000090: 8bcb 1543 c6c3 1543 10d8 1543 2ee5 1543
000000a0: 92f4 1543 20d3 1543 80cf 1543 ebf8 1543
000000b0: 20e8 1543 54e8 1543 2ea5 1543 39bc 1543
000000c0: 7dc8 1543 c3d2 1543 f7c9 1543 52bc 1543
000000d0: 14ae 1543 05ed 1543 89b7 1543 d2b8 1543
000000e0: b0d5 1543 5cb9 1543 16ee 1543 20c3 1543
000000f0: 90e7 1543 70db 1543 70c9 1543 5e07 1643
00000100: fdc8 1543 9cf1 1543 11de 1543 c4e2 1543
00000110: e8d8 1543 7ad1 1543 3cc1 1543 5ed0 1543
00000120: c7d3 1543 c8be 1543 e9ce 1543 10d2 1543
00000130: 4ac3 1543 73d2 1543 d8c0 1543 9fde 1543
00000140: dfce 1543 94c6 1543 63db 1543 06e1 1543
00000150: b1d6 1543 a9de 1543 159d 1543 00e2 1543
00000160: cbd9 1543 abd7 1543 e6e2 1543 8ad9 1543
00000170: 13f9 1543 66cf 1543 5c00 1643 91d0 1543
00000180: 3be0 1543 cfcb 1543 4ad9 1543 46c1 1543
00000190: c8c3 1543 5ebf 1543 d0b5 1543 beda 1543
000001a0: dbbf 1543 38d2 1543 c1f8 1543 f4d9 1543
000001b0: 13ba 1543 bfb4 1543 b9bf 1543 7fc0 1543
000001c0: a8ef 1543 a9de 1543 fbbf 1543 80c1 1543
000001d0: 68c5 1543 8ecc 1543 49cd 1543 b1c9 1543
000001e0: 4bcd 1543 57e4 1543 0cc2 1543 b4c3 1543
000001f0: 76e9 1543 5ed1 1543 03f9 1543 92f7 1543
00000200: e2e2 1543 d1e8 1543 a3c6 1543 efab 1543
00000210: 9cc6 1543 1dc1 1543 e8c0 1543 54d1 1543
00000220: 6fd0 1543 41c5 1543 6cd9 1543 e8a0 1543
00000230: f5b9 1543 8bca 1543 fab8 1543 d0cc 1543
00000240: 02c4 1543 42b6 1543 bbc9 1543 d8ba 1543
00000250: 6bc6 1543 2fb2 1543 3ecb 1543 21ba 1543
00000260: 34ae 1543 8ac0 1543 e6cf 1543 7dcb 1543
00000270: 4bcd 1543 2cd8 1543 cec0 1543 77c6 1543
00000280: 54b6 1543 6db2 1543 6bbb 1543 b7cb 1543
00000290: 33b1 1543 dfbc 1543 d4da 1543 55d4 1543
000002a0: 87cd 1543 cec8 1543 91d9 1543 a6c9 1543
000002b0: d7d4 1543 19ce 1543 fbb7 1543 f3bb 1543
000002c0: d5b3 1543 97b8 1543 30a7 1543 2fb5 1543
000002d0: 21b5 1543 d4c7 1543 e29e 1543 b2bc 1543
000002e0: 6ec0 1543 a3b7 1543 33ba 1543 a79d 1543
000002f0: ced0 1543 dcae 1543 f0cf 1543 3dc4 1543
00000300: fab2 1543 aed3 1543 5fc6 1543 16b6 1543
00000310: 3ed4 1543 f9ca 1543 a9b3 1543 5faf 1543
00000320: bcc4 1543 f6a9 1543 8ed3 1543 3ccb 1543
00000330: ffc4 1543 e29b 1543 61a2 1543 69cb 1543
00000340: 96a1 1543 8fba 1543 bfc3 1543 81b2 1543
00000350: f3c1 1543 51b9 1543 04a9 1543 70ce 1543
00000360: 7fc5 1543 b3d4 1543 c5ad 1543 45d1 1543
00000370: 8fb7 1543 61d8 1543 9cd4 1543 adda 1543
00000380: 20bf 1543 53b1 1543 22d6 1543 99b0 1543
00000390: c7b1 1543 c1ba 1543 299f 1543 a5bc 1543
000003a0: 38b9 1543 c6b6 1543 36c9 1543 16c9 1543
000003b0: abb6 1543 f3ba 1543 8bb2 1543 a4c8 1543
000003c0: b4c2 1543 5aa8 1543 5ab7 1543 c8b1 1543
000003d0: bfb6 1543 36be 1543 12be 1543 73b9 1543
000003e0: 2bbc 1543 afcd 1543 17b9 1543 8cb8 1543
000003f0: 4bbe 1543 c7d2 1543 22d5 1543 09f7 1543
149.9195 149.78615 149.88884 149.72855 149.86163 149.86653 149.89891 149.81227
149.8961 149.87663 149.84383 149.92697 149.76135 149.94115 149.72446 149.88507
149.76888 149.80045 149.82095 149.86192 149.80844 149.89182 149.84052 149.90605
149.7484 149.94327 149.83858 149.93385 149.81479 149.86714 149.91002 149.79118
149.91763 149.80913 149.83156 149.73926 149.79509 149.76474 149.844 149.89523
149.95535 149.8247 149.81055 149.97234 149.90674 149.90753 149.64523 149.73524
149.78316 149.82329 149.78893 149.73563 149.68 149.92586 149.71693 149.72195
149.83472 149.72406 149.93002 149.7622 149.90454 149.85718 149.78687 150.02878
149.78511 149.94379 149.86745 149.8858 149.84729 149.81827 149.75482 149.81393
149.82726 149.74524 149.80824 149.82056 149.76285 149.82207 149.7533 149.86961
149.80809 149.7757 149.85698 149.879 149.83864 149.86977 149.6136 149.88281
149.85075 149.84245 149.88632 149.84976 149.97295 149.81015 150.0014 149.81471
149.8759 149.79613 149.84879 149.75497 149.76477 149.74753 149.7102 149.85446
149.74944 149.82117 149.9717 149.85138 149.72685 149.70604 149.74892 149.75194
149.93616 149.86977 149.74992 149.75586 149.77112 149.79904 149.8019 149.78786
149.80193 149.89195 149.758 149.76447 149.91196 149.81784 149.9727 149.96707
149.88626 149.90944 149.77592 149.67162 149.77582 149.75435 149.75354 149.81769
149.8142 149.77052 149.8493 149.62854 149.7264 149.79118 149.72256 149.80005
149.76566 149.71194 149.78801 149.72986 149.77507 149.69603 149.79391 149.72707
149.68048 149.7521 149.8121 149.79488 149.80193 149.84442 149.75314 149.77525
149.71222 149.69698 149.7321 149.79576 149.69218 149.73778 149.8548 149.82942
149.80284 149.7844 149.84987 149.78769 149.8314 149.80507 149.71867 149.73418
149.70247 149.72105 149.65308 149.70775 149.70753 149.78058 149.62064 149.73709
149.75168 149.71733 149.72734 149.61583 149.81564 149.68304 149.81226 149.76656
149.69913 149.82687 149.77489 149.71127 149.82907 149.79286 149.7018 149.68504
149.7685 149.66391 149.82639 149.79388 149.76952 149.60892 149.6343 149.79457
149.6312 149.72874 149.76463 149.69728 149.75761 149.72389 149.66022 149.8064
149.77147 149.83086 149.67879 149.81746 149.71703 149.84523 149.8305 149.8542
149.74658 149.69267 149.83646 149.68983 149.69444 149.7295 149.62172 149.7369
149.72351 149.71396 149.78598 149.78549 149.71355 149.73027 149.69743 149.78375
149.76056 149.65762 149.71622 149.69446 149.71385 149.74301 149.74246 149.72441
149.73503 149.80345 149.723 149.72089 149.74333 149.82335 149.83255 149.96498

linear2.0.bias f4 [65]
00000000: 91f8 1143 d591 1243 eac2 1243 5269 1043
00000010: 8916 1343 18c6 1043 88c5 1043 d0fd 0243
00000020: 465c 1043 e359 1143 8e44 1043 73fa 0e43
00000030: ab24 1243 32a4 0d43 0564 0b43 cc39 1543
00000040: d38d 0c43 8a73 1043 b9f6 1043 c0bc 0a43
00000050: dd8e 0c43 bea7 1343 64d7 2943 ac4e 0c43
00000060: 8182 0243 6580 ff42 a75b 1643 da3c acbc
00000070: a850 b4bc 7faf 2343 7a90 0943 188a 0d43
00000080: cb70 0c43 51d3 0f43 43cc 1143 10d1 cf3c
00000090: 6e33 c3bc 050d 0d43 7ea7 0143 d757 0b43
000000a0: d1e1 0f43 e0d4 1143 6386 1043 592f 0a43
000000b0: f6ef 3b43 8fad 1043 8747 1143 8478 0f43
000000c0: 2f1e 1143 1b2c 1243 4515 1143 0277 1043
000000d0: c7ff 1d43 71bc 1143 341d 1143 8382 1243
000000e0: 0b2f 1143 0eac 1243 3ab5 0f43 f3a6 1043
000000f0: c7e5 0843 29ff 0143 476d 0243 8b3d 0e43
00000100: 127a d442
145.97096 146.56966 146.76138 144.4114 147.08803 144.7738 144.7716 130.99146
144.36044 145.35112 144.26779 142.97832 146.14323 141.64139 139.3907 149.22577
140.554 144.45132 144.96376 138.7373 140.55806 147.65524 169.84137 140.30731
130.50978 127.75077 150.35802 -0.02102511 -0.022011116 163.68553 137.56436 141.53943
140.4406 143.82545 145.7979 0.025368243 -0.023828235 141.05086 129.65427 139.34312
143.8821 145.83154 144.52495 138.18495 187.93735 144.67796 145.2794 143.47076
145.1179 146.17229 145.08308 144.46487 157.99913 145.7361 145.11407 146.50981
145.18376 146.67209 143.70792 144.65215 136.89757 129.99672 130.42686 142.2404
106.23842
